models/mnist_cnn.pth (torch, 39341 bytes, 6 tensors)

conv1.weight f4 [8, 1, 3, 3]
00000000: 948f 87bf bd14 12be 4097 3d3f cf0c 95bf
00000010: bdf9 d63e f141 e73e 1576 e4be 3b9e 2f3f
00000020: 6072 f33e 41da 84be 7fab b7bf 6cac 4fbf
00000030: 9d21 653f 9980 84bd 4d1d f8bd 5996 453f
00000040: 3294 4a3f 86d1 b33e e757 b03e 5c5b 883e
00000050: 1fe4 5e3e b843 63bd 4c91 c33e b5a7 423f
00000060: de2d 6e3e 234c 583e 9bf7 ce3e d750 013f
00000070: 239a e13e c5fb 833f f217 f23d ba37 033f
00000080: 47b2 cd3d 31f3 88bf 2ec9 c0bf 6310 a9be
00000090: 7313 0cbe 8cf7 dd3e 7311 003f 8905 c63e
000000a0: fb88 813f 8eed b73e 7295 a13e 7a50 373e
000000b0: e98a e2be 3a53 94bf 6f19 3bbf 34d2 be3b
000000c0: 4cbc fdbe 8f6e 553f 2361 223f 6ef1 993f
000000d0: af81 d73e 2ccb 98be 048d 103f 913a 1bbd
000000e0: a986 63bf af31 5a3f 01e8 073d 2b0a e4bd
000000f0: 859b d73e 93e1 f73e 8dbb e03e 7522 3f3f
00000100: 8daf 0a3f ad44 66bc cdde 363e 18ba 233f
00000110: 5853 ec3e d912 91bf e4dc 16bf 5f3e 1abe
-1.0590692 -0.14265724 0.74058914 -1.1644534 0.4198741 0.45167497 -0.4462134 0.68600816
0.475482 -0.25947765 -1.4349211 -0.8112247 0.89504415 -0.064698406 -0.12114964 0.7718254
0.7913238 0.3512079 0.34442064 0.26632202 0.21766709 -0.055484504 0.3819679 0.7603715
0.23259684 0.21122794 0.40423283 0.50513977 0.4406291 1.0311209 0.118209735 0.51256907
0.10043769 -1.0699216 -1.5061395 -0.33020315 -0.13679294 0.43352926 0.50026625 0.38676098
1.0119928 0.35923427 0.3155933 0.17901793 -0.44246605 -1.1587899 -0.73085684 0.005823398
-0.49557722 0.83371824 0.6342947 1.2026803 0.42091128 -0.29842508 0.5646517 -0.03789765
-0.8887735 0.8523206 0.03318024 -0.11134752 0.4211084 0.48414287 0.4389309 0.7466195
0.5417412 -0.0140544595 0.17858429 0.6395583 0.46157336 -1.1333877 -0.589308 -0.15062855

conv1.bias f4 [8]
00000000: 6663 8dbd 93d3 ac3a b949 32be cc82 8fbc
00000010: 8d3b 1abe f07e 26bd d940 11be 2bd0 f9bd
-0.06903724 0.0013185613 -0.17410935 -0.017518423 -0.1506178 -0.0406484 -0.14184894 -0.12197908

conv2.weight f4 [16, 8, 3, 3]
00000000: 9005 833d 1e31 e4bd 6c08 ecbe 36f6 10bf
00000010: 4f1c d2be 70b7 6fbe 2843 963d af27 b2be
00000020: 39f9 93be 8d43 f03d dc9a 50be 8396 c03b
00000030: 2045 a33e b4b7 ff3e 0d48 173c ba97 55bd
00000040: caba 693c 212b 38bd 67e8 30be 123f bebd
00000050: e4a8 813d 9df6 97be 3aa1 84be 0448 32be
00000060: e497 353d 622b cc3d c316 923e bb7f e73e
00000070: 1ea7 473f dae9 033f ed5c 9dbe 2632 cdbe
00000080: 7fe8 7ebe 50aa 17be e88f 613e bd3a d5bb
00000090: 0c77 373d ba87 b93d 43cb 273e a014 98be
000000a0: 87f9 19be 77a9 84be b9d8 183e eb9f fd3c
000000b0: f4b6 853e bad2 e43e 45d7 46ba e5e1 053d
000000c0: d35c 1e3e f1b9 0c3f 161b 993e d29a dfbd
000000d0: 687d 81bb e60d 153e e2b1 a8be 9409 bbbd
000000e0: 1f4d 27be f0ea 1f3e 17d0 a1bd 5e2f 1a3d
000000f0: ef65 363e 4e3f e33d 1589 863e ffbc c03e
00000100: b82d d73e b193 143f 2471 94be 117c c7be
00000110: 9e44 65be d3d0 46be 72f7 963e 3f39 8b3e
00000120: dfaa 863e cedb c23e 9a30 ce3e c720 f53d
00000130: 34fd 04be f145 8e3c 46d4 643d 0215 70be
00000140: db12 01bf e211 03be ba82 0b3e 2bb1 09bf
00000150: e94e 35bf 3e17 dd3e ba57 1d3f e6cc eebe
00000160: 03bd 9d3e 881d 233f 7d2b 8f3d d89e dcbd
00000170: 598d b5be c284 5b3e d0b8 1abd 2689 03be
00000180: 6463 59be 55b5 773e d313 213d 832a 87be
00000190: 599e 63bf f1ef 15be 72a2 ce3e 2576 19be
000001a0: 1bb5 abbe 27cf 263d 7179 ab3e f65c 013f
000001b0: 91bf 9d3d 3c28 8d3e e447 c5be 6921 11be
000001c0: 87c0 5bbd 0a39 0bbe 52bd 0dbe 2685 b73d
000001d0: a006 dc3d cf8b 133e b31f 3bbd d0df 73bd
000001e0: e782 5abf 68a6 b3be 586e 2f3f a5ec b1bc
000001f0: dd7b f9be d457 323c a10e edbd 0675 aa3e
00000200: b6ff c5be 9fa6 2abd f23c e53e b436 523d
00000210: 7cf2 68bf 7b7e 013e f4ed 363e 9935 b13e
00000220: 3a1c 0dbe 4d37 2a3e 79df dc3e 51bb 843e
00000230: 14a4 28bf f3af b53b f1b6 353e 0bfd 4b3e
00000240: 9b82 05bf e39d a1bd d521 253f 2aca 84bf
00000250: 71eb 22be 2fe0 0f3f 7aae d0bb 2288 173e
00000260: d849 1b3f f5a4 7e3e 05a7 363e 7c68 6bbe
00000270: ae9a 413e e2ca be3d 47c1 edbe c79e 2fbe
00000280: 0130 53be 50b8 f3be 8193 093e f5ad 55be
00000290: e5e8 ec3e 5073 9ebe 958f 2bbe 736e e23e
000002a0: cea0 08be 9065 9d3c 608c bd3e 7834 433e
000002b0: 2dcf c93d 3693 eabe 5cab 7c3e b3ee eabe
000002c0: e27e 00bf 8514 c9be d1a4 f0be c758 5fbf
000002d0: 460c 97bc 633e e8bd 6020 2d3e 4709 0dbe
000002e0: f051 e1be ce06 f43e 6980 b2be 182c 65bd
000002f0: 71ff 773e b9a8 9fbe 974b b7be 59a4 8bbd
00000300: 345d 283e dbcf 0cbe 031c 643e a61c 8bbe
00000310: 12bc 413e 5597 c73b cfd3 9f3d 051f 8bbe
00000320: 5406 0c3e 5754 acbe 7ff2 64be 9cf9 a1bd
00000330: 4253 87be 15b8 28be ef1e d1ba a828 b63e
00000340: 1e04 acbd ee54 693e 2e19 453e 8c47 91be
00000350: 6a36 a63d cb38 4dbe c4b8 6b3a 407d b13d
00000360: bf94 e23d 7761 f3bd 921f 5fbf d2a8 8ebb
00000370: 86a4 773e 8a86 d1be 3df0 b73e 27f1 923e
00000380: 0b27 1abf 9fa5 e1be cac6 d43e 2558 e83e
00000390: ef83 a5bf dcd7 f83d 62d8 453e e989 f4be
000003a0: 3490 f13d 302e 5b3e e538 e43d 4214 b73e
000003b0: c738 10be 5810 2cbe 4b24 b83e b45b 3f3c
000003c0: 237d aabc fc49 a73e ae64 7bba ffc0 fabd
000003d0: 71ab 713d 4e56 dfbe 9a11 d33d 2e6a 263a
000003e0: c29e 19bf 68f1 59be 0436 f4bd d003 153e
000003f0: 5542 113d 3e19 7f3e 95e9 0ebe 4a62 3fbe
0.06397545 -0.11142181 -0.46100175 -0.5662569 -0.41037223 -0.2340982 0.07337028 -0.347959
-0.2890108 0.11731634 -0.20371574 0.0058773174 0.31888676 0.49944842 0.009233487 -0.05214665
0.014265725 -0.044963006 -0.17276154 -0.092893735 0.063310415 -0.29680339 -0.25904256 -0.17410284
0.044334307 0.09969212 0.2853299 0.45214638 0.77989376 0.51528704 -0.3073496 -0.40077323
-0.24893378 -0.14811063 0.22027552 -0.0065072463 0.044791266 0.09059091 0.16386132 -0.29703236
-0.15036593 -0.2591054 0.14926423 0.030960044 0.26116145 0.44692022 -0.0007585178 0.032686133
0.15465097 0.54971224 0.29903477 -0.109182015 -0.003951717 0.14556083 -0.32948214 -0.09132686
-0.16338013 0.15616965 -0.07901018 0.03764283 0.17812322 0.11096059 0.2627646 0.37644193
0.42027068 0.5803786 -0.2899257 -0.38961843 -0.22389457 -0.19415598 0.2948566 0.27192113
0.2630224 0.38058323 0.40271455 0.119691424 -0.12987214 0.017367335 0.055866502 -0.23445514
-0.50419396 -0.1279979 0.13624087 -0.5378596 -0.7082353 0.43181795 0.61461985 -0.466407
0.30808267 0.63716936 0.069907166 -0.107724845 -0.35459402 0.21437362 -0.037773907 -0.12845287
-0.21229321 0.24190266 0.039325546 -0.2639962 -0.88913494 -0.14642312 0.4035831 -0.14986475
-0.3353661 0.0407249 0.3349109 0.5053247 0.07702554 0.2756976 -0.3853141 -0.14172901
-0.053650405 -0.13595977 -0.13841751 0.08960943 0.10743451 0.14408801 -0.045684528 -0.059539616
-0.8535599 -0.35087895 0.68527746 -0.021719286 -0.48727313 0.010885198 -0.11575056 0.33292407
-0.38671654 -0.04166281 0.4477306 0.0513217 -0.90995 0.12645905 0.1786421 0.34611204
-0.13780299 0.16622658 0.43139246 0.2592416 -0.65875363 0.0055446564 0.17745568 0.19920747
-0.52152413 -0.078914426 0.6450475 -1.0374196 -0.15910126 0.5620145 -0.0063684555 0.14798024
0.6065955 0.24867614 0.1783715 -0.22989076 0.18906662 0.093160406 -0.4643652 -0.17150412
-0.20623781 -0.47601557 0.13435175 -0.2086714 0.46271434 -0.3094735 -0.16753991 0.4422489
-0.13342592 0.019213468 0.3702116 0.19062984 0.09853969 -0.45815438 0.24674743 -0.45885238
-0.5019361 -0.39273468 -0.47000745 -0.8724484 -0.01843847 -0.11340024 0.16906881 -0.1377307
-0.44007826 0.47661442 -0.34863594 -0.055950254 0.24218537 -0.31183413 -0.35799858 -0.06818456
0.16441804 -0.13751166 0.2227631 -0.27170295 0.189194 0.006091038 0.07804071 -0.27172104
0.13674289 -0.33658096 -0.2235813 -0.07908937 -0.26430708 -0.16476472 -0.0015954653 0.35577893
-0.08399223 0.22786304 0.19247887 -0.28374898 0.081158474 -0.20041196 0.0008992071 0.08666468
0.11063527 -0.11883824 -0.8715755 -0.004353621 0.24183854 -0.40922958 0.35925475 0.2869961
-0.60215825 -0.4407167 0.41557914 0.4537975 -1.2930888 0.12150547 0.19320825 -0.47761467
0.11795083 0.21404338 0.11143664 0.35757643 -0.14084159 -0.1680311 0.3596519 0.011679579
-0.020811623 0.32673633 -0.00095898926 -0.12243842 0.05900139 -0.43620533 0.103060916 0.00063482195
-0.6000787 -0.21283495 -0.11924365 0.14552236 0.03546365 0.24911973 -0.13956292 -0.18689838

conv2.bias f4 [16]
00000000: 11ee c1be 7e99 08bf 0c70 87bd b7a5 a0bc
00000010: d2a1 0fbd a908 a4bc c84b abbb 598d 5fbc
00000020: 4930 8abd bb64 aabe 6392 9739 2e9b dfbe
00000030: a99d d1be 6fad 81be 5776 d3bd 2d01 95be
-0.37876943 -0.5335921 -0.06613168 -0.019610269 -0.035066433 -0.02002366 -0.0052275397 -0.01364454
-0.06747491 -0.33279976 0.0002891003 -0.4367308 -0.40940598 -0.25327632 -0.10325306 -0.2910246

fc1.weight f4 [10, 784]
00000000: 5551 14be e464 a13d 4c46 063d a772 c5bd
00000010: 04d5 14be 63fd 153e 4205 e7bd d2e4 f7be
00000020: 117e b13e 37c2 94be 30aa 88bd 4539 b73c
00000030: cd7d 843e 188e 9a3e cbd1 b33e 0851 b33d
00000040: 5cb1 5ebc 59df 37be 6f5a 7abe 3bb9 3ebc
00000050: 3a66 fa3d 957f dcbe 74b8 ec3d 12b5 38bf
00000060: 28b7 bfbe 7463 0bbf 6e3c 38be 31df 1cbe
00000070: d3e5 bbbd 75d9 12bf 805f 8fbd d4b5 0dbe
00000080: ada8 16bd 5360 91be ecf2 97be b532 fe3d
00000090: 3267 17bc 1e9b 84be fb22 40bd 1467 cebc
000000a0: 7fd3 1d3e 637b d0be 5265 a33e 4a47 873d
000000b0: a673 33be 9300 aa3a afe5 bf3d 8590 b3be
000000c0: 6dda bc3e 4c6b e9be 46b5 26bd 709a ab3d
000000d0: 3b45 853c 192b e53d d135 3ebe c7e1 88be
000000e0: d582 d4be dd2d 183e 3f19 05bf 6b63 e43d
000000f0: 90aa 563e 2fb8 403c 3f87 8abe c941 df3e
00000100: ac3f 5b3e aa80 0fbf d797 083e 1d44 a43e
00000110: e257 9f3d 263e 463d 4256 30bd ac36 cd3d
00000120: 2076 eabb 512c b13e 84d0 723e d1e9 363e
00000130: e07a 5a3e fee2 093e 000d 17be b2be 053e
00000140: 4d9a a13e 3287 97be f921 b53d 7481 95bd
00000150: ebb3 36bf bb2c 0dbd 5d79 9c3d 3f13 6a3e
00000160: d639 68be 352c 44bf 4a34 c4be 42d4 3abd
00000170: f05b c5bd 58ff f53d d902 7bbf 6f16 203e
00000180: 7836 85be c189 a4be debd 833e a824 8d3e
00000190: 32f7 77bd 2add 05bf 9bcd a33d 276d 2b3e
000001a0: fa0f 303e b6c2 883d 20d2 303e d3bc 44be
000001b0: c746 5b3e 238f b7be 586b 22bf b868 9bbd
000001c0: 4d96 f63d 0f92 ff3d 9f43 59bd 2a24 233e
000001d0: 64f3 00be 7ab1 42bd 8123 9c3e 153c ed3d
000001e0: 1ff3 433e 1bbe 863e c591 c1bd 7136 7e3e
000001f0: 58e2 90bd 34c9 513e d3bb 233e 39ca 8f3d
00000200: 9b13 8a3e 6932 10bf c358 433d 32d7 3b3d
00000210: b744 d83e 372a 2e3e 1119 3e3e 3776 53bd
00000220: 0c6e 85bf 19c3 8cbd 5fc6 bcbe 0ce9 923e
00000230: b532 c33e 4057 053e 011a 573e d188 1fbf
00000240: d28b e8be 7763 a2bd 3d3f fe3d f755 c3be
00000250: 2aca 6fbe ee5e 03bd f3e1 63be 4b1c 0d3f
00000260: c770 8b3e 8e64 0dbf adc5 5fbe 92b4 143d
00000270: 6527 dbbe 6eb8 35be cbeb afbe 1b53 243e
00000280: fa22 00bf 4dce a93e 1cba 3b3e 36df 68be
00000290: e29e a33e b54f 983e 19a9 9e3e bfdd 27bf
000002a0: 1403 c73e 6ea1 843e b840 1f3c db6d 723e
000002b0: d030 0dbe 1993 6f3e c19c 50be 6512 fbbd
000002c0: 40f1 713d 5452 423c 78a1 453c a478 7dbe
000002d0: 91cb 14bd c86c 20bf efe5 e63e a338 9b3d
000002e0: 73aa ad3e 7baa ca3e 789a 41bf 01ac e4be
000002f0: 0c54 a7be c72b 77be 2edf 873e 143e 233f
00000300: 9ec0 f4bd 1768 85be a7ba 4cbf 5237 55be
00000310: 22dd 5f3d e915 16bf 09f5 73bc 1481 b5bd
00000320: 56b7 09bf 31be 6a3e 9405 1f3b a195 5dbe
00000330: 6cc9 c3be ca50 87be eac5 63be a584 c3be
00000340: 8ca4 2abf 7d73 93bc cb68 a03e bc88 f13b
00000350: 4927 d1bd 7426 493d 1e0b 9cbe abe1 0c3e
00000360: 20fa 123d 79b3 b33d 0880 c03e e277 8d3e
00000370: 8445 ed3d 8381 8b3e 75e9 0d3e d59d d43d
00000380: 2568 3f3c c23c 80be 31d8 223f 1b1e 8a3d
00000390: 2bda 723e 093e 49be f131 8c3d 5a62 d0bc
000003a0: f95f 0abd f00a 3e3f b7a1 bbbc ab02 a4bd
000003b0: 657e 01be 4a74 29bd 0093 a0be 0d37 083e
000003c0: 7030 82be 64ad 23bf 2459 5abf d1d9 6dbf
000003d0: b1cf 09bf d6f9 8a3e 508b bcbe 8aa7 493d
000003e0: b8cc cc3d 9eac ffbd 0d98 1bbe ce32 753e
000003f0: 83e9 65be 4bbf 48be 6f2c 28be 4e08 d5bd
-0.1448415 0.078805715 0.032781884 -0.09641009 -0.14534384 0.1464744 -0.112803 -0.48416764
0.34666494 -0.29054424 -0.06673086 0.022366175 0.25877228 0.30186534 0.35120997 0.0875569
-0.01359209 -0.17956294 -0.2444856 -0.011640842 0.122265294 -0.43066087 0.11558619 -0.7215129
-0.37444425 -0.5444863 -0.17991802 -0.15319516 -0.09174695 -0.57363063 -0.07000637 -0.13838893
-0.036781956 -0.28393802 -0.29677522 0.12412015 -0.009240912 -0.25899595 -0.04690836 -0.025195636
0.1541271 -0.40719137 0.3191324 0.06605394 -0.17524585 0.0012970142 0.093699805 -0.35071197
0.36885396 -0.45589674 -0.04070022 0.08379066 0.016268363 0.11189861 -0.18575217 -0.26734754
-0.41506067 0.14861245 -0.5199165 0.11151775 0.20963502 0.011762663 -0.2705631 0.43604878
0.21411008 -0.560557 0.13339172 0.32083216 0.07780434 0.048399113 -0.04305101 0.100201935
-0.007155195 0.34604123 0.23712355 0.17862631 0.21335936 0.13465497 -0.14751053 0.13061026
0.31563035 -0.29595333 0.088443704 -0.07300082 -0.71368283 -0.034466486 0.07640336 0.22858904
-0.22678313 -0.76629955 -0.38321143 -0.04561258 -0.09636676 0.120115936 -0.9805122 0.15633558
-0.2601812 -0.32136348 0.25730795 0.2756703 -0.06053848 -0.52290595 0.079982005 0.16740857
0.17193595 0.06677763 0.17267656 -0.19212656 0.21413718 -0.35851392 -0.63445044 -0.07588333
0.12040386 0.1247903 -0.053043004 0.15931764 -0.12592846 -0.047532536 0.30495837 0.11583725
0.19135712 0.26316914 -0.094516315 0.24825455 -0.07074422 0.20486909 0.15989618 0.07020993
0.26968083 -0.5632692 0.04769207 0.045859523 0.42239925 0.17008291 0.1856425 -0.05162641
-1.0424209 -0.068731494 -0.36870095 0.28693426 0.38124624 0.13021564 0.21006013 -0.6231814
-0.45419174 -0.07929128 0.124144055 -0.38151523 -0.23416963 -0.032072954 -0.22254162 0.55121297
0.2723448 -0.5523156 -0.21852751 0.036305018 -0.42803493 -0.17746136 -0.34359583 0.16047327
-0.5005337 0.33165208 0.18332714 -0.22741398 0.31957155 0.29748312 0.30988386 -0.6557273
0.38869536 0.2590441 0.00972002 0.23674719 -0.13788152 0.23395957 -0.20372297 -0.12259368
0.059067965 0.011860449 0.012062423 -0.24753052 -0.03632695 -0.62665987 0.450973 0.07579162
0.33919105 0.3958319 -0.75626326 -0.4466248 -0.3268131 -0.24137793 0.2653746 0.637666
-0.11950801 -0.26055977 -0.7997231 -0.20821884 0.054654248 -0.5862718 -0.014889964 -0.0886251
-0.53795373 0.22924115 0.00242648 -0.2163911 -0.3823961 -0.26428825 -0.22243467 -0.38187137
-0.6665733 -0.017999405 0.3132995 0.0073710363 -0.10212571 0.049108937 -0.30477232 0.1375796
0.03588307 0.08774466 0.3759768 0.27630526 0.11585525 0.27247247 0.13858588 0.103816666
0.011682545 -0.25046355 0.6361113 0.067440234 0.23716037 -0.19652571 0.06845463 -0.025437523
-0.033782933 0.7423544 -0.02290426 -0.080083214 -0.12645872 -0.041370668 -0.31362152 0.1330225
-0.2542758 -0.6393645 -0.8529227 -0.92910486 -0.53832537 0.27143735 -0.36825037 0.049232043
0.099999845 -0.12484096 -0.15194722 0.23945162 -0.22452359 -0.19604222 -0.164232 -0.104019746

fc1.bias f4 [10]
00000000: f1d8 b53e 47e1 4b3e 6ac7 0b3e d01a 4cbe
00000010: 1f11 46be 8378 84bd ef76 c6bc 6842 c8bd
00000020: f929 6dbd bc63 453b
0.35517076 0.19910155 0.13650289 -0.19932103 -0.19342469 -0.06468298 -0.024226634 -0.09778291
-0.057901356 0.003011926
